saved_model_w/g2s.pth (torch_old, 766291 bytes, 40 tensors)

encoder.layers.0.weight f4 [4, 8, 8]
000000 d8 6c 75 3e 33 60 a1 3c cb 66 ff 3b d4 c2 03 3c
       0.23967302 0.019699192 0.0077942363 0.008042056
000010 5e 2e 91 3d 5d c1 fe 3d 06 8b f9 3c 2d b0 cb 3d
       0.07088922 0.12439225 0.0304618 0.09945712
000020 dc 61 85 be 1d e1 83 3e 3d af ba 3e 6e 17 b2 3e
       -0.26051223 0.25757685 0.3646182 0.347835
000030 47 d0 85 3e 50 3c 9e be 2e 35 06 be fd 9b 9f 3e
       0.26135466 -0.3090539 -0.13106224 0.31173697
000040 4c 75 81 be c5 92 a7 3e 5d 22 83 be b8 4b 7c be
       -0.25284803 0.32729164 -0.25612155 -0.2463826
000050 9e 9f 3a 3e 6f 0f 93 be a7 21 cd bd f3 37 7f 3e
       0.18224952 -0.28722712 -0.10016184 0.24923687
000060 02 3b 96 3e cf 78 b0 3e e5 4d e8 bd d5 7e 81 be
       0.29341894 0.3446717 -0.11342982 -0.25292078
000070 2a fa b6 3e 4a 94 ec bd 33 8c 10 be 3c bb a7 3d
       0.35737735 -0.115517214 -0.14115982 0.08190009
000080 8b c1 4a be ca fc 78 3e 5f a7 8a 3e ce 0a 6e be
       -0.19800393 0.24315181 0.2708082 -0.23246309
000090 af af 91 be 88 70 89 bd 7e 88 01 3e 75 d7 bf bc
       -0.28454348 -0.06710917 0.12649724 -0.023418168
0000a0 a9 70 37 be 27 a1 c7 3c 63 dd a7 be 85 08 83 be
       -0.1791407 0.024368836 -0.32786092 -0.25592437
0000b0 cf 23 60 be b8 97 88 3e 04 16 ab 3e ab 70 11 be
       -0.2188866 0.26678252 0.33415234 -0.14203136
0000c0 df 27 bc 3d 48 dc 5f 3e 18 8c e4 3d 27 dd df bd
       0.09187292 0.21861374 0.11159533 -0.10930853
0000d0 64 e7 83 3e a4 fb 17 3e 30 8e 81 3c 58 79 d1 bd
       0.25762475 0.14842087 0.01581487 -0.102282226
0000e0 48 ec a9 3e bc f6 ae 3e 33 ce 17 be d3 9e b4 3e
       0.3318808 0.34172618 -0.14824753 0.35277423
0000f0 f5 83 11 3e 3f 1c 87 be c5 6f 07 3e f9 24 87 be
       0.14210494 -0.26388738 0.1322623 -0.26395395
000100 2c 28 c2 3e c1 54 2f be 28 73 01 3e 43 e3 05 3e
       0.37921274 -0.17122175 0.12641585 0.13074975
000110 c3 ff 02 3e 40 70 71 3e 61 5f 16 be 00 ae 46 be
       0.12792878 0.23577976 -0.14684822 -0.19402313
000120 be dd 9c be 40 ba 6d bc 52 81 2b be 20 1b 68 3c
       -0.30637926 -0.0145097375 -0.1674855 0.014166623
000130 4c 6f 94 bd 88 3e f0 3d 75 98 9c 3e d0 a8 d5 3d
       -0.07247791 0.11730677 0.30585065 0.10432589
000140 80 1e 57 bd 9b da e9 bd b0 bc 8e be 76 62 ba 3e
       -0.05251932 -0.11418649 -0.27878332 0.36403245
000150 42 57 09 bd 5f 4d 17 3c 80 46 56 3c 52 b1 84 be
       -0.03353048 0.009234755 0.013078332 -0.25916535
000160 86 91 5a 3e 1e 3a 55 3e fa 80 de 3c e3 6a 50 be
       0.21344575 0.20822951 0.02716111 -0.20353274
000170 82 9d c8 bd 0a 8b 21 bc 9e d8 4e be 78 a5 57 be
       -0.09795667 -0.00985981 -0.2019982 -0.21059215
000180 ce 0b 89 bc 52 98 68 bd b0 f0 3b 3d fa d5 c7 bd
       -0.016729262 -0.05678589 0.045883834 -0.0975761
000190 a5 9e 9e bc 60 e6 39 be 2a 6d a5 be d3 eb 85 3e
       -0.019362757 -0.18154287 -0.32309848 0.26156482
0001a0 24 24 8a 3d 37 df a1 3e d8 62 69 bd 4c f8 b5 bd
       0.067451745 0.31615612 -0.05697903 -0.088852495
0001b0 69 2d aa be 09 6f 09 be 32 6a 6d 3e 70 4c b1 be
       -0.3323777 -0.13421263 0.23185042 -0.3462863
0001c0 45 1b b6 bd b4 3b 84 3e b1 14 8c 3e 63 ed b0 3d
       -0.0889192 0.258268 0.27359536 0.08639028
0001d0 69 c0 91 bd 7b 98 01 bc dc 81 89 bd 4b 76 05 be
       -0.071167774 -0.007909889 -0.06714222 -0.13033406
0001e0 6e 16 17 3e 72 9f f6 bd e4 62 4b be b4 43 a4 3d
       0.1475465 -0.120421305 -0.19861943 0.08020726
0001f0 84 d7 82 be 60 87 9a bd b6 01 39 3e f4 4d 07 3e
       -0.2555505 -0.07545352 0.18067059 0.1321333
000200 62 93 ba 3e 96 4c 36 be 98 1c 08 3d 70 d2 d5 bd
       0.3644057 -0.17802653 0.033230394 -0.104405284
000210 8a 7e 4a be 87 aa 4b be f5 fd f1 3d 6b 39 89 bb
       -0.19774833 -0.1988927 0.118160166 -0.004187753
000220 55 cd 38 be b8 2f 7f be c8 fa 95 be 21 69 b1 3e
       -0.18047078 -0.24920547 -0.29292893 0.3465052
000230 d8 d4 76 bd a4 6e a7 bd cd 20 05 be 51 14 35 be
       -0.060261577 -0.081754 -0.13000794 -0.17683531
000240 20 93 8e be bf 89 54 be 27 2b 7c 3e 44 b3 9e 3d
       -0.27846622 -0.20755671 0.24625836 0.07749036
000250 ae 6c ff bd a4 d1 08 be 9f 79 84 3e c2 08 a4 3e
       -0.12471901 -0.13361222 0.2587404 0.32037932
000260 5a 23 ca 3e a9 3c 2a 3e aa e7 2e 3e a0 b6 e8 bc
       0.39480096 0.16624703 0.1708056 -0.028407395
000270 24 a9 53 be 62 57 b1 be 0b b4 53 3e 59 34 f2 bd
       -0.20669991 -0.3463698 0.2067415 -0.11826391
000280 fa bd 14 3e c0 8f 8e 3c fb f2 a8 be 43 9d 31 be
       0.14525595 0.01740253 -0.3299788 -0.17345147
000290 d0 b4 cb 3d b8 8d 92 bd b7 cd ae be 94 e7 fd 3d
       0.099465966 -0.07155937 -0.34141323 0.12397686
0002a0 40 28 5e 3c 54 b4 e8 bd d6 40 12 3e ec dd 98 3d
       0.013559401 -0.1136252 0.14282545 0.07464203
0002b0 5d 85 05 be 4f 9e a2 3e 9e a0 35 3e 88 d5 35 3d
       -0.13039155 0.31761405 0.17737052 0.044393092
0002c0 60 0f 8b bd a1 54 99 be cd c2 8b 3e 50 d7 ba bd
       -0.06790042 -0.2994738 0.2729706 -0.09123099
0002d0 6a f5 69 be 2e 1f 68 3e 12 94 00 3e bc 2f b3 3d
       -0.22847524 0.22668144 0.12556484 0.08749339
0002e0 04 92 8f bd 86 f6 e1 bd e8 bf 75 3d e5 14 8c 3e
       -0.07010272 -0.11033349 0.05999747 0.2735969
0002f0 b8 61 4f 3d 72 30 2b be 8d d2 b3 3e 40 c6 f7 3b
       0.0506303 -0.16717699 0.35121575 0.007561475
000300 8e 1e 8f 3e 07 58 b6 3d f4 42 a6 3e 6c e3 4c 3e
       0.27953 0.08903509 0.32472956 0.2000863
000310 5a a7 5c be 7c 96 82 3e 00 0f 15 3b af 4e 91 be
       -0.21548215 0.25505435 0.0022744536 -0.28380343
000320 3c ba 97 bd e7 63 a3 be b1 92 3b be 98 3d 80 be
       -0.07408568 -0.31912157 -0.18317677 -0.25046992
000330 ee 9d 77 3e bc 1e 98 bd 30 35 7a bd 96 7e 2d 3e
       0.24181339 -0.07427737 -0.06108588 0.1694282
000340 29 ef 14 3e 49 fd 72 be 30 81 10 3e b5 f5 17 3e
       0.14544357 -0.23729433 0.14111781 0.14839824
000350 20 ee 8f be e7 b6 9e 3e 2b 4b 5c be 55 93 0d be
       -0.28111362 0.30998918 -0.2151305 -0.13825734
000360 fc 7f 9f be 6f 3b b6 3e 1c 74 0c 3d cb 05 91 3e
       -0.31152332 0.3559222 0.034290418 0.28324732
000370 7a f6 46 bc a8 bf 6c 3e fa 2f e7 bd ae 69 90 be
       -0.0121437255 0.23119986 -0.11288448 -0.28205627
000380 ef 92 da 3d bc 24 89 bd 83 f1 c5 bc 58 53 00 be
       0.106725566 -0.0669646 -0.024163013 -0.12531793
000390 c0 d5 ef 3b dd db 3e 3d ce 9a 02 3e 9d d2 91 be
       0.007319182 0.046596397 0.12754366 -0.28480998
0003a0 7e e8 2e 3e 00 eb 14 3d 56 b4 79 3e 96 db 7f 3e
       0.17080876 0.036356926 0.24385199 0.24986109
0003b0 2e 8e 8e be 25 d6 ad 3e 0b 06 b2 be a6 1f 50 3e
       -0.2784285 0.33952442 -0.34770235 0.20324573
0003c0 47 3d 38 3d 2b 12 fe 3d f5 ca 36 be 90 0b 6b 3e
       0.044980314 0.12405809 -0.1785086 0.2295363
0003d0 0a 26 33 be af 83 a6 be 04 97 f2 3d 52 2a 46 3e
       -0.1749498 -0.32522342 0.1184521 0.19352081
0003e0 eb 6f b3 3e c0 59 17 bd 01 23 ae 3e 5a 96 68 3e
       0.35046324 -0.036950827 0.3401108 0.22713605
0003f0 e4 8e 33 be d5 a0 8b be ea 0d 4b 3e 2d 5a 46 be
       -0.17534977 -0.27271143 0.19829527 -0.19370337

encoder.layers.0.h_bias f4 [8]
000000 45 38 c9 3b 75 23 18 3c 90 9d 7b 3c 2d 06 10 3a
       0.006140741 0.009285797 0.01535739 0.00054940843
000010 2d ed 71 3c 23 88 1e bc 14 79 c7 bc ca 7e 60 bc
       0.01476602 -0.009676012 -0.024349727 -0.013702104

encoder.layers.1.weight f4 [4, 8, 8]
000000 80 a5 41 3e 1a 08 9b be a9 cf 8d 3e de 7f 15 3e
       0.1891079 -0.30279619 0.27697495 0.14599559
000010 39 5e c4 bc 63 e5 3d 3e a0 0c 83 be 2c 93 4e bd
       -0.02397071 0.18544535 -0.2559557 -0.050433323
000020 c1 74 52 3c 14 32 51 be a5 93 91 bd 79 f5 e5 bd
       0.012845219 -0.2042926 -0.07108239 -0.11228461
000030 34 f8 ac 3e 92 d1 a1 3e bd 23 96 3e ba a3 98 3e
       0.33783114 0.31605202 0.2932414 0.29812413
000040 6f 79 a4 be a0 34 f2 3d ca 47 ec 3d 0b 8f 6c be
       -0.32123896 0.11826444 0.1153713 -0.23101442
000050 64 fc 1a 3e 15 44 68 be 07 e1 70 3d d2 4d ee 3d
       0.15135342 -0.22682221 0.058808353 0.11635937
000060 71 2b aa 3e 49 ee 3d be 0b 8a 8b be b8 e4 b7 3e
       0.33236268 -0.1854793 -0.27253756 0.35916686
000070 4f 72 25 3e f6 b4 06 3e 29 7f 06 3e fa 77 db bd
       0.16156887 0.13154969 0.13134445 -0.10716243
000080 9e 27 6e 3e 3e 09 9e be a6 34 a1 3d 73 3f 56 3e
       0.232573 -0.30866426 0.0787137 0.20922641
000090 db f9 79 3e 09 02 17 be fb 2e 81 be d7 3b 15 3e
       0.24411719 -0.1474687 -0.25231156 0.14573608
0000a0 96 d2 7f be 41 70 96 be 2d f7 a1 be 2b 21 11 be
       -0.24982676 -0.29382518 -0.31633893 -0.14172809
0000b0 b2 25 74 bd 86 69 70 be 41 5b 18 be d9 d2 9b be
       -0.05960626 -0.23477754 -0.1487856 -0.30434301
0000c0 f1 7e 89 3e 50 c3 a5 bd 36 31 2f be bc f5 f2 3d
       0.2685466 -0.080938935 -0.17108616 0.11863276
0000d0 95 d8 5a be 05 7f 81 3e ea 03 28 3e 18 4a 99 be
       -0.21371682 0.2529222 0.16407743 -0.29939342
0000e0 17 25 89 be 44 b8 6e be a5 11 30 be 39 13 a8 3d
       -0.2678611 -0.2331248 -0.17194231 0.082067914
0000f0 57 e5 b3 be 5d 64 68 be 2a 36 17 3e 29 b9 db bd
       -0.3513591 -0.22694536 0.14766756 -0.10728676
000100 c5 64 ab bd 43 5e 95 be 8a 21 54 3e 23 a2 9b 3d
       -0.0836883 -0.29173478 0.20715919 0.075992845
000110 92 42 df bd a1 27 60 be 98 80 23 3d c7 16 d7 3d
       -0.10901369 -0.21890117 0.03991756 0.10502391
000120 fa 30 4b 3e db bc d8 3d 77 15 a5 ba 9a ae 54 be
       0.19842902 0.10582896 -0.0012594898 -0.2076973
000130 fc 5b 78 3e 6c a1 3d 3b 71 0e 8c be 61 d0 a7 3e
       0.24253839 0.0028935326 -0.27354768 0.32776168
000140 ed 21 7e 3e 38 e2 8d be ca ff 38 be 11 d5 d8 bd
       0.24817629 -0.27711654 -0.18066326 -0.10587514
000150 25 c1 5a be f4 e8 51 3e 87 61 8f be 16 54 c8 3e
       -0.21362741 0.20499021 -0.28004095 0.39126652
000160 2d 52 d7 bd da b3 55 3e e0 a7 9b 3d b6 c7 ba bd
       -0.10513721 0.20869389 0.07600379 -0.09120123
000170 e8 b3 82 3e 85 ff 8c be 76 7b 48 be 88 27 9f 3d
       0.25527883 -0.27538696 -0.19578347 0.07771212
000180 cd 8e b1 3e e4 4b 1a be 39 42 17 be 49 7a 36 be
       0.3467926 -0.15068012 -0.14771356 -0.17820086
000190 bc ed e1 bd 47 0b cd bd 95 e3 13 be 90 77 4d be
       -0.11031672 -0.100119166 -0.14442284 -0.2006514
0001a0 38 37 23 3e de d5 6c 3b 40 bf 2d be aa 0c 24 be
       0.15939033 0.0036138217 -0.16967487 -0.16020456
0001b0 b1 da c1 3d db e7 13 bc 63 4c 6c 3e 4c 5f c4 bb
       0.0946554 -0.009027447 0.23076014 -0.0059928056
0001c0 e2 a4 92 be 58 e2 85 be e8 88 d4 bd d4 5d a0 bd
       -0.2864142 -0.2614925 -0.10377675 -0.07830396
0001d0 68 44 25 3d a0 63 a2 bd 68 95 05 3e fe d0 f0 bd
       0.04034844 -0.07929158 0.13045275 -0.11758612
0001e0 4b 7f a9 3e 41 d7 a7 3d 3f c4 4f bd 3c 03 b4 3e
       0.3310493 0.08195353 -0.050724264 0.35158718
0001f0 49 c5 95 3d 09 8a 86 be 07 ac 48 be 26 79 22 3e
       0.0731302 -0.26277187 -0.19596873 0.15866527
000200 a4 c9 ce 3d 25 d9 6f 3e 70 7b de bc 4c 42 9d 3e
       0.10097054 0.23422678 -0.027158469 0.30714643
000210 96 bd 7b 3e 28 8c ac 3d 9b 53 57 bc 99 71 c1 3e
       0.2458404 0.0842517 -0.013142492 0.3778198
000220 18 bd 2a 3c e5 50 08 be 00 b7 a4 bb 67 c8 d0 3e
       0.01042106 -0.13312109 -0.005026698 0.40777895
000230 67 55 9d 3e b9 b7 26 bd 39 8b d4 3e f9 3f 42 3e
       0.3072922 -0.040702555 0.41512468 0.18969716
000240 bb f7 36 be cb 16 b0 be 06 65 52 3e 2e 73 c8 3e
       -0.17867939 -0.3439239 0.2054635 0.39150375
000250 20 63 2a be 17 df 0a 3e cf 67 84 3b f2 db b4 bc
       -0.16639376 0.13561665 0.0040406953 -0.022077534
000260 58 e2 c4 bd 80 70 c9 3d 9c a0 9f 3d 2a 86 74 3e
       -0.09613484 0.09835911 0.07794306 0.23879305
000270 74 88 04 3e 92 bf 24 3e fd af 9f 3e 90 77 e1 3d
       0.12942678 0.16088703 0.31188956 0.11009133
000280 b8 f7 56 3d 2f ce 03 be f5 c1 84 3e 90 dd 55 3d
       0.052482337 -0.12871622 0.25929227 0.05221325
000290 d2 5b 69 3e f9 cc ae 3e 28 f1 a1 bd 66 e9 7e 3e
       0.22788933 0.34140757 -0.07907325 0.24893722
0002a0 c8 0b 93 bd 73 5b a3 3e bf 7a 8e 3e 7f c4 01 be
       -0.071799815 0.31905708 0.27828023 -0.12672614
0002b0 e0 be 4f 3c ea 1a 1e be ef 6c 12 be 24 9a 92 bd
       0.0126797855 -0.15439954 -0.14299367 -0.07158306
0002c0 47 dc 3c bd df 5e 2d be c7 e1 aa be a0 db 1c be
       -0.04610851 -0.16930722 -0.3337538 -0.15318155
0002d0 f1 c5 88 3c e4 6c 0c be ea ff 95 3e e4 a7 ad 3e
       0.016695948 -0.13713413 0.2929681 0.33917153
0002e0 07 80 48 3e e1 b3 e8 3d 6a 81 8f be f9 f2 c8 3e
       0.19580089 0.11362434 -0.28028423 0.39247873
0002f0 26 22 87 be 64 fc 0f be 90 31 5b be 7c 35 33 3e
       -0.2639324 -0.14061123 -0.21405625 0.17500871
000300 06 a1 96 be a9 7b 32 be f1 a9 5a be 3f 8a 5e be
       -0.29419726 -0.17429985 -0.2135389 -0.21732424
000310 66 05 33 be a8 9a b2 3e ee 0a 15 bd 57 55 f3 3d
       -0.17482528 0.34883618 -0.036387376 0.11881512
000320 eb b1 b3 be 6f f2 a0 3e ff 4b b8 bd 1e 21 a6 be
       -0.35096678 0.31434962 -0.0899887 -0.3244714
000330 48 61 7e 3e 69 36 cd bd 61 4d ad 3e 37 22 64 be
       0.24841797 -0.100201435 0.33848098 -0.22278677
000340 72 10 a8 be d0 fd 87 be df 4b 1b 3e f0 67 22 bd
       -0.32825047 -0.2656083 0.15165661 -0.039649904
000350 68 91 ac be da 8a 84 3d ab a8 e3 bc 34 10 0e 3e
       -0.33704686 0.06471796 -0.027790388 0.13873369
000360 6d 29 38 be 46 3a 81 be af e0 71 3e 98 36 2e be
       -0.17984553 -0.25239772 0.23620866 -0.17013013
000370 23 f1 75 3e e9 7d 90 3e ee ee 7c be 9a 38 1f be
       0.24017768 0.28221062 -0.2470052 -0.15548936
000380 70 54 2e 3d 4f ad aa be f3 83 e4 3d 06 d9 16 be
       0.042560995 -0.3333535 0.1115798 -0.14731225
000390 45 4e f9 bd a3 89 76 be fa 07 33 3e 83 d7 46 be
       -0.12173132 -0.24075942 0.17483512 -0.19418149
0003a0 68 b0 90 be 28 6a be bd 6b d3 4d be 93 fc af be
       -0.28259587 -0.092975914 -0.20100181 -0.34372386
0003b0 93 f0 08 3e b4 c8 0a be 45 c3 78 3e 47 b1 84 3e
       0.13373022 -0.13553125 0.2429324 0.25916502
0003c0 cb e5 66 be 00 0f 53 be 16 82 00 be e2 10 54 3e
       -0.22548597 -0.20611191 -0.12549624 0.20709565
0003d0 40 66 47 bc 1f 56 01 be a6 46 60 3e 45 ab ab 3e
       -0.012170374 -0.12630509 0.2190195 0.33529106
0003e0 c1 d3 85 3e 2e 6d 8a be f4 63 96 bd 08 e3 8a bd
       0.26138118 -0.27036422 -0.07343283 -0.06781584
0003f0 7f 7b 9a 3e da 3f 3b be cd 7e 4f be 80 42 b5 3b
       0.30172345 -0.18286076 -0.20263214 0.005531609

encoder.layers.1.h_bias f4 [8]
000000 b7 c8 13 3d 2b 41 3c bd 13 d0 0f 3c 52 22 73 3d
       0.03608009 -0.045960587 0.008777636 0.059358902
000010 e1 80 d6 3b 44 ef 8e 3b a6 69 50 bc c1 52 91 3c
       0.0065461253 0.004362019 -0.012720501 0.017739655

encoder.layers.2.weight f4 [4, 8, 8]
000000 ba dd e3 bd 5d 44 32 3e ff 22 ce 3d 19 34 68 be
       -0.11126275 0.17408891 0.10065269 -0.22676124
000010 0e bb 6e 3e 0b 25 61 3e c7 41 24 3d bf 7c 9e be
       0.23313543 0.21986787 0.040101793 -0.3095455
000020 02 21 2a 3e a6 8f 70 3e 78 95 c9 3d 91 f1 0b be
       0.16614154 0.23492298 0.09842962 -0.13666369
000030 00 3f c2 3c a0 14 0b be e1 6b aa 3e 8f cb ae 3e
       0.023711681 -0.13582087 0.3328543 0.34139678
000040 75 fd 15 bd 4d 3b 5f be a3 81 84 3e f3 95 1b 3e
       -0.03661867 -0.21799965 0.25880155 0.1519392
000050 88 d4 2b 3e d3 f8 8f be 5f 5c 86 3d 8b db fc bd
       0.16780293 -0.28119525 0.06560587 -0.12346562
000060 8f 02 a5 be a7 fb 79 be f9 5f 38 3e bd 00 df 3d
       -0.32228515 -0.24412404 0.1800536 0.10888813
000070 eb 76 af be ad 4e 4e 3e 34 44 6e 3e 04 be 88 3e
       -0.34270415 0.201472 0.23268205 0.2670747
000080 2f 2c 34 3e 61 cf 5d bd a6 5e 83 3e 49 d3 8a 3e
       0.1759498 -0.05415285 0.2565815 0.27114323
000090 c8 99 3a 3e ff 0a 6e be 8c 2b 38 be d9 e6 8b 3e
       0.18222725 -0.23246382 -0.17985362 0.2732456
0000a0 f9 33 8e 3e 9a a9 7b 3e 6d a5 07 be ee b7 a1 bd
       0.27774027 0.24576417 -0.13246699 -0.0789641
0000b0 07 3b 94 be 7d f9 60 be 22 4a 68 3e e5 23 94 be
       -0.28951284 -0.21970172 0.2268453 -0.28933635
0000c0 dd 8b d2 bd 81 7a a2 3d d6 3a 4e be b3 3a ad 3d
       -0.10280583 0.07933522 -0.20139632 0.084584616
0000d0 88 42 93 bd fc 51 0e 3e 60 35 9d be 92 d5 22 3d
       -0.07190424 0.13898462 -0.30704784 0.039754458
0000e0 82 50 9f be 79 ff 54 3e 61 99 b6 3e c0 16 0a be
       -0.3111611 0.2080058 0.35663894 -0.13485241
0000f0 91 23 af 3c 51 7b 46 be f6 0a 85 be ee 69 3e be
       0.021379264 -0.19382979 -0.25984925 -0.18595096
000100 49 de 20 be a4 74 0a 3e 43 08 f8 3c 53 ec 3f bd
       -0.15709795 0.13521057 0.030277377 -0.046856236
000110 b5 7a 8e be 6c 72 75 be f7 1a ad be de 5d 89 be
       -0.27827993 -0.2396943 -0.33809635 -0.26829427
000120 de cf 98 3e 86 17 04 3e 20 0b ac be bb 8e 71 bd
       0.2984609 0.12899598 -0.33602238 -0.05897401
000130 20 72 e8 3c 37 41 43 3e 2b e3 a7 3e dc d8 ae 3d
       0.028374732 0.19067846 0.32790503 0.085374564
000140 af e4 8f 3e 30 3a 6d bd 96 28 85 3d 5a 70 8e be
       0.2810416 -0.05791682 0.06501882 -0.27820092
000150 69 4a 5f 3d 8d a7 9a 3e be df 3d 3e 8e 6e b2 3e
       0.054514322 0.30205956 0.18542382 0.34849972
000160 82 53 16 be 3a 8f 20 3d 0b 91 23 3e ce ae 66 3e
       -0.14680293 0.03919909 0.15973298 0.2252762
000170 cf ae a7 be 73 c6 61 be 5b cc bd 3c 74 7c 67 be
       -0.32750556 -0.22048359 0.023168733 -0.22606069
000180 de 23 13 3e 41 32 f7 ba 14 63 e3 bc a7 d3 12 3e
       0.14369151 -0.0018859581 -0.027757205 0.14338551
000190 11 3c 59 3e 95 b3 ae 3e 27 dd da 3d c8 7b 87 bc
       0.2121432 0.34121385 0.10686713 -0.016538516
0001a0 52 f0 8a 3e e2 aa 80 3e 01 58 00 be e5 9c 23 3e
       0.27136475 0.25130373 -0.12533571 0.1597782
0001b0 29 19 78 3d bd c1 08 be aa 28 8f bd 49 41 97 bd
       0.06057087 -0.13355155 -0.06990178 -0.07385499
0001c0 d3 85 8c be 3e 0d 1c be e1 94 39 3e cd 7e 77 3e
       -0.2744585 -0.15239426 0.18123199 0.24169464
0001d0 3f ef 22 3d 38 ef 90 be d0 be 08 3e 5e d8 df bd
       0.039778944 -0.2830751 0.13354039 -0.10929941
0001e0 ee 41 98 3e 00 e5 98 be 30 10 fa bc e4 b0 79 3e
       0.297378 -0.29862213 -0.030525297 0.24383885
0001f0 51 73 1e 3e 1a 23 35 be 3b f2 b5 be 86 8f 01 bd
       0.15473677 -0.17689171 -0.3553637 -0.031631015
000200 0a dc 0b 3e d9 89 67 be 44 7a 97 be 67 a6 09 3c
       0.13658157 -0.22611178 -0.2958547 0.00840149
000210 96 4b 03 bd be 9d 82 3e 1b 80 b3 be 1e 95 5d bd
       -0.032054506 0.25510973 -0.35058674 -0.054097287
000220 f0 46 8c be 27 e7 4e 3c 4b f9 38 be f9 bd fd 3d
       -0.2739787 0.012628353 -0.18063848 0.1238975
000230 f2 35 88 be f3 57 81 be 71 a9 55 be 9e 90 9d be
       -0.26603657 -0.25262412 -0.20865418 -0.30774397
000240 16 8b 64 3e 28 3f 4f bd cf 24 49 be da b0 7d 3e
       0.22318682 -0.05059734 -0.19642948 0.24774495
000250 bc 46 a4 bd 32 3e 3b 3e d2 74 e0 bd 1f 73 97 be
       -0.08021304 0.18285444 -0.10959782 -0.29580018
000260 28 c2 8e 3d 9a e5 92 3e e7 7f b0 be 8f e0 00 3d
       0.06970626 0.28690797 -0.34472582 0.031464156
000270 8a 89 e0 3d c8 82 88 3d 03 6e a5 bc 5b ac e7 bd
       0.109637335 0.066655695 -0.02019406 -0.11312171
000280 24 88 8c be d4 21 f9 3d 90 26 73 be 19 91 95 be
       -0.27447617 0.12164655 -0.23745179 -0.29212263
000290 75 24 ae bd da cf 6c be fd c0 cd 3d 91 c1 81 3e
       -0.085030474 -0.23126164 0.10046575 0.25342992
0002a0 c9 ae 8c 3e 74 24 6d be d2 61 45 3e 7f a2 80 3e
       0.274771 -0.23158437 0.19275597 0.25123975
0002b0 09 42 a2 bc 6e bd 18 3e 8a fd 44 3e ab 81 8a 3e
       -0.019806879 0.14916012 0.19237342 0.27052054
0002c0 9a b7 41 3e b0 69 3d 3e 56 69 09 be ac d9 49 be
       0.18917695 0.18497348 -0.13419089 -0.19711941
0002d0 dd 44 24 be 47 ed 91 3e 0a 7b bf bd fd 3f 67 3c
       -0.16041894 0.2850134 -0.0934964 0.014114377
0002e0 e1 d0 a8 be 5d 28 3f 3d 20 43 cc bd cb 3f 5c be
       -0.32971862 0.046669353 -0.099737406 -0.2150871
0002f0 94 aa 9b 3e d1 75 88 be 86 d1 6f bd ae 8e c1 bc
       0.30403578 -0.26652387 -0.058549426 -0.023627605
000300 a4 e0 a3 be c6 e4 5a 3e 82 64 e6 bd 26 a5 22 3e
       -0.32007325 0.21376333 -0.11249639 0.15883312
000310 86 0f 4a 3e eb 9e 9f 3e a4 19 b3 3d cf e5 87 3e
       0.19732484 0.31175932 0.08745125 0.26542518
000320 0d 2e a7 3e 20 82 8f 3d a0 88 93 bd 9c 40 c6 bd
       0.3265232 0.07007241 -0.072037935 -0.09680292
000330 10 9d 6a 3d 8a 49 02 3e 36 c5 aa be 3d a1 87 3e
       0.057278693 0.12723365 -0.33353585 0.26490203
000340 f7 df 03 3d bd d6 a1 be be dd f2 3d 87 4e 55 3e
       0.03219601 -0.31609145 0.118587 0.20830737
000350 56 c7 10 3e 9a 22 96 3e 80 74 12 3b ff 2c 96 be
       0.1413854 0.29323274 0.0022347271 -0.29331204
000360 00 3e 52 ba eb 92 83 3e 93 22 2e be b2 6b 1a 3e
       -0.0008020103 0.25698027 -0.17005377 0.15080145
000370 fc e8 a6 3d c0 f6 6a bd 00 ab 24 3b 8e 07 1a 3e
       0.08149907 -0.057364225 0.0025126338 0.15041944
000380 8e 5a 8a be b3 70 82 3e e2 22 71 3e 37 bf 37 3e
       -0.27022213 0.25476608 0.23548463 0.17944036
000390 7a 9a b5 3e c2 84 07 bd 18 c1 83 be 4b a8 fe 3c
       0.3546942 -0.033085592 -0.25733256 0.031086108
0003a0 f9 ff 09 be 7e c0 23 3e 04 82 97 3e 9f c6 61 be
       -0.13476552 0.15991399 0.29591382 -0.22048424
0003b0 8f 7e b9 3c 1a 6d ae 3e 74 df 88 be 61 2c 5b bd
       0.022643356 0.34067613 -0.2673298 -0.05350912
0003c0 c3 6f a0 3e df 2a 8e 3e 7e 50 e9 3d b4 8b 24 be
       0.31335267 0.27767083 0.11392306 -0.16068918
0003d0 0c 71 3f bc 0f 80 9e be 77 12 9b be 3c 79 a5 be
       -0.011684667 -0.30957076 -0.30287525 -0.32319057
0003e0 cd ee 9c 3e 2a d7 a0 3e 1e 7e 0f 3e d6 50 00 be
       0.3065094 0.31414157 0.14012954 -0.12530836
0003f0 9c f4 a1 3e fe a8 bd bd fd de 84 3e dc 9c f4 bb
       0.31631935 -0.09260748 0.25951377 -0.007464988

encoder.layers.2.h_bias f4 [8]
000000 3c ef 12 bd 84 1c e8 3c 98 c6 87 3c 38 15 6c bc
       -0.035872683 0.02833391 0.016574189 -0.014409356
000010 e2 9c 30 3c 44 4c bf 3b 1f 24 68 bd b1 8e 39 bc
       0.010779591 0.005837949 -0.056675073 -0.011325524

encoder.layers.3.weight f4 [4, 8, 4]
000000 7c 53 77 be d2 34 27 be 2f 63 9a bd 26 9a dc be
       -0.2415294 -0.16328743 -0.07538449 -0.43086356
000010 d4 7e f5 3d 18 71 09 be be 39 84 3e b9 e6 ac 3e
       0.11987081 -0.13422048 0.25825304 0.33769777
000020 ec 06 fc bd 9f 3e 8a 3e f5 06 fe 3d d1 a2 b2 3e
       -0.12306008 0.270009 0.12403671 0.34889844
000030 55 81 b5 be 1d fe 5d bc a0 e4 14 be 10 e6 e5 3e
       -0.35450235 -0.013549355 -0.14540339 0.44902086
000040 88 0e f6 be d8 c4 81 be b6 e8 bc 3d 54 52 f1 3e
       -0.4805796 -0.25345492 0.092240736 0.47133124
000050 09 a1 ab 3e 2c 0d f5 be 83 14 a4 be 0a f1 00 3f
       0.33521298 -0.47861612 -0.320469 0.50367796
000060 da 69 67 3d 95 72 b4 be 75 cf bf bd 73 38 8d 3e
       0.056497432 -0.3524367 -0.09365741 0.2758213
000070 65 23 cc bd 72 f2 ba be f4 39 9b be 2d 79 86 be
       -0.099676885 -0.36513096 -0.30317652 -0.26264325
000080 45 f9 cd bc 33 b4 4c 3e 9a ac 84 3e 3d 2f 65 be
       -0.025143275 0.19990616 0.25912935 -0.22381301
000090 ff fe f9 bd 1a c2 b4 be 9b 00 dd 3e ef b4 0b 3f
       -0.1220684 -0.35304338 0.43164524 0.5457296
0000a0 16 b1 df 3e 36 72 83 3e 73 59 46 bd 36 c9 37 3d
       0.43689793 0.25673074 -0.04842515 0.044869624
0000b0 ad fa 09 3e 18 6f ca be 15 4b 96 3d 03 c6 bb be
       0.13474531 -0.39537883 0.073385395 -0.36674508
0000c0 ac 7b 08 bf 5f c1 32 3c 1c 9e f1 bd 1d 3d 89 be
       -0.5331371 0.010910361 -0.11797735 -0.26804438
0000d0 42 1d 9d 3d e7 4d 08 3d 9e 54 fb 3d 5e 7d 68 be
       0.07671596 0.03327742 0.12271999 -0.22704074
0000e0 7a 19 0c bf 91 33 86 3d 67 14 0b be 0f 76 d0 bd
       -0.54726374 0.06552804 -0.13582002 -0.10178768
0000f0 d1 10 b3 3e fc 42 a0 3d 3c 89 51 3e fd 6a 13 be
       0.34973767 0.07825276 0.20462507 -0.14396282
000100 ec 21 cb be a0 2e cc 3d 38 e5 a2 be 6e dc 96 3d
       -0.39674318 0.099698305 -0.31815505 0.073662624
000110 a7 b8 d1 be 27 2b da 3e ca 02 95 be 40 24 f3 3e
       -0.4096119 0.42611048 -0.2910369 0.47488594
000120 d8 d6 b4 3e 76 85 c1 3e 6a 9c 99 3e c8 03 ed 3d
       0.35320163 0.37797135 0.30002147 0.11572987
000130 00 a2 c7 bc 0f 0a 8b bc 2d 15 48 be b3 48 e6 be
       -0.02436924 -0.01697257 -0.19539328 -0.4497734
000140 b0 36 de 3e aa 96 b4 3d e1 38 98 3e 76 26 a0 3d
       0.43401098 0.088177994 0.29730895 0.07819836
000150 2e 1c 0d 3e cf 87 a8 be 7f 8a c2 be f5 7e c6 3e
       0.13780281 -0.32916114 -0.3799629 0.38768736
000160 9c 28 42 3e 78 7d 82 3e 50 49 fa be b5 7c 38 3d
       0.18960804 0.2548635 -0.48884058 0.045040805
000170 61 f8 ef be 28 92 6a bd c1 08 94 bc e5 89 b2 be
       -0.46869186 -0.05726829 -0.01807058 -0.3487083
000180 88 c5 fa be 45 74 e1 3b 7a 38 e6 3e 62 5c e2 3e
       -0.4897883 0.0068803155 0.44964963 0.44211107
000190 12 18 a0 be 4d b7 bb bd 0c 14 d6 be fd 83 c6 be
       -0.31268364 -0.09165821 -0.4181217 -0.38772574
0001a0 8c df 15 be 87 d9 f6 3e b8 92 05 be 34 fb 00 3d
       -0.14636058 0.48212835 -0.1304425 0.031489566
0001b0 4c f5 ec 3e b0 86 99 3d c6 83 ce 3e 9d 4e 9e 3e
       0.46280897 0.07496393 0.4033491 0.30919352
0001c0 a7 46 eb 3e 7e 8a ac 3d ce 05 cf be 4f e5 dc be
       0.4595234 0.08424853 -0.40434116 -0.431437
0001d0 f0 41 8b be 54 e1 ce 3e 52 35 93 3e 2f f4 13 3e
       -0.27198744 0.40406287 0.28751618 0.14448617
0001e0 92 f3 c2 be 67 4b cc be 80 db d0 3e 10 97 54 bd
       -0.38076454 -0.39901277 0.40792465 -0.051901877
0001f0 48 e4 fe be e8 2a 95 bd 20 d6 f5 bd 00 23 f7 3b
       -0.4978354 -0.07283574 -0.12003732 0.007542014

encoder.layers.3.h_bias f4 [4]
000000 04 c1 4c bd d9 6b ce 3c 25 63 3d 3d 0c 79 19 3d
       -0.04998876 0.02519791 0.04623713 0.037468955

encoder_mean.weight f4 [50, 4]
000000 7d 06 77 3e e2 03 41 3e 10 56 bc be 0b 31 f7 3b
       0.24123569 0.18849137 -0.3678441 0.007543688
000010 bc 91 46 be 05 ed ac 3e f7 ed 8b 3e ed f8 98 3e
       -0.19391531 0.33774582 0.2732999 0.29877415
000020 1b 59 fc 3e 6d 3b 7c 3e 2f 89 f2 be 31 c3 1a 3e
       0.49286732 0.24632044 -0.47370288 0.15113522
000030 ab a9 9c be 13 ce 95 3d 4a 2e e7 3c f5 b2 04 3f
       -0.30598196 0.07314696 0.028220315 0.51835567
000040 dc 15 cb be bd e6 f9 be 53 d0 34 be 40 8b 1e 3d
       -0.39665115 -0.48808852 -0.17657594 0.038707018
000050 95 d2 c9 3e e1 14 cf 3e 6f 0a ce 3e 95 44 32 3e
       0.39418474 0.40445617 0.40242335 0.17408974
000060 16 88 34 be 24 4b d6 bd 27 8e 97 be 8d 40 a0 3d
       -0.17630038 -0.10463551 -0.2960064 0.07824812
000070 3f 37 a1 be 29 e0 21 3e bc 57 ac 3e ae 1d df 3e
       -0.31487462 0.15808167 0.33660686 0.4357733
000080 aa d0 dc be d5 ea d8 3e 0c 5a 89 be 9a 34 9d 3b
       -0.43127948 0.42366663 -0.26826513 0.0047975304
000090 0e d9 ff 3e f2 61 8b 3e 59 b8 03 be 07 98 a5 3e
       0.49970287 0.27223164 -0.12863292 0.3234255
0000a0 b1 10 d9 be 7d 77 cb 3e b0 c8 06 3f 6c 71 76 3c
       -0.42395547 0.397396 0.52649975 0.01504169
0000b0 25 37 d9 3c 09 e3 09 be c1 c2 b4 be 61 26 86 be
       0.026515553 -0.13465513 -0.35304835 -0.26201156
0000c0 1f 2e 9d bd d6 40 ce be d8 63 dd be f2 d9 d2 3c
       -0.076748125 -0.4028384 -0.43240237 0.02573869
0000d0 c8 d8 b1 be 32 e4 86 be 24 cc 93 bc 33 48 8d be
       -0.34735703 -0.26345974 -0.018041678 -0.27594146
0000e0 0a 60 d8 3e b0 b8 3d be 0a 8f 9b be 58 f3 20 be
       0.42260772 -0.18527484 -0.30382568 -0.15717828
0000f0 de 39 c3 be 51 5e 85 3e a7 67 e9 3e 2a d3 85 be
       -0.38130087 0.2604852 0.45586893 -0.26137668
000100 23 bd 25 be 4a be ef 3e f4 97 b0 be 0b af 1a 3e
       -0.16185431 0.46824867 -0.3449093 0.15105836
000110 06 46 e0 be a8 b3 e3 be 42 d2 de bc 50 9e a0 be
       -0.43803424 -0.44473004 -0.027199868 -0.31370783
000120 97 07 68 3e 63 45 1e be 72 14 da bc 48 2b 95 be
       0.22659145 -0.15456156 -0.026621077 -0.29134583
000130 98 e9 7c 3e 1b 20 ea 3e fb ec 00 bd 2f 01 87 be
       0.24698484 0.4572762 -0.031476002 -0.2636809
000140 df 8e de be 85 a2 f4 3e be 3e 71 3e 53 5d 69 3e
       -0.43468377 0.47780243 0.2355909 0.22789507
000150 2f 31 fa 3d 70 e0 7c 3e bc af 49 3e 6e 8d 85 3e
       0.12216412 0.24694991 0.19695944 0.26084465
000160 33 cb a7 3e 3a 4f 5a 3d 1f 60 de 3e 1b 93 a1 3e
       0.32772216 0.053298213 0.4343271 0.31557545
000170 c4 e7 a0 bc b9 ee 66 be f6 b9 e7 3c 5c 96 c3 3e
       -0.019641764 -0.22552003 0.028286915 0.38200653
000180 20 06 7f 3e 66 3d 51 be c9 37 18 be ef 11 1b 3e
       0.2490468 -0.20433578 -0.1486503 0.1514356
000190 e8 24 67 3e b0 38 f5 3e c8 4e 8a 3e a0 25 3b 3e
       0.22572672 0.47894812 0.2701323 0.18276072
0001a0 79 b9 93 3d 33 b0 ef be 24 1d 5e be ab 43 a3 3c
       0.072131105 -0.46814117 -0.21690804 0.019929728
0001b0 c8 b0 cc be 3a 9a e1 be 0d 0d 9c 3e bb c6 0e 3e
       -0.39978623 -0.44062978 0.30478707 0.13942997
0001c0 95 fe b4 be c6 6a 10 3d cc 35 a4 3e 99 2b a0 3e
       -0.3535048 0.035258077 0.32072294 0.31283262
0001d0 c5 a9 d4 3e 2a 73 4c be b8 30 47 3e 33 48 db be
       0.41535774 -0.19965807 0.19452178 -0.4282852
0001e0 f1 c5 bb bd 3a ab 9f be 2b 59 e7 bd 8b 7a 89 3e
       -0.09168614 -0.31185323 -0.11296304 0.26851305
0001f0 79 39 58 3e 20 3a 8c be 25 88 1e be 8b 37 05 be
       0.21115674 -0.27388096 -0.15481623 -0.13009469
000200 04 86 45 be 4e fc 87 be d8 94 ba 3e 15 8f af 3e
       -0.19289404 -0.2655968 0.36441684 0.3428885
000210 82 0b d3 3e 1a 79 80 be 3d bf be 3e a1 1b 13 be
       0.41219717 -0.25092393 0.37255278 -0.14366008
000220 91 d8 ec bd e9 97 02 be 0a ce bd bc 4a ea 5e be
       -0.11564744 -0.12753262 -0.023169536 -0.21769062
000230 27 12 44 3c e2 7f a4 be d5 4c 2b 3e 73 69 e9 be
       0.0119672185 -0.32128817 0.16728528 -0.45588264
000240 15 d5 5e be d9 7c b6 be 10 65 9a 3e a9 88 9e 3e
       -0.21760972 -0.35642126 0.3015523 0.30963638
000250 fc 31 de be 59 ae 8f be 1f 6b d5 3e 40 e4 ed 3d
       -0.4339751 -0.28062704 0.4168329 0.11615801
000260 27 83 9b 3e 42 9a c3 be cd 13 48 3e 58 b3 92 3e
       0.303735 -0.38203627 0.19538803 0.28652453
000270 58 9d a7 bd 7a ea ed bc 5a 1c c1 3e 05 5d 18 3e
       -0.08184308 -0.029042471 0.37716943 0.14879234
000280 ef 2d e6 3d 25 ae 0c ba b7 55 6e be 83 0c a8 be
       0.1123923 -0.0005366526 -0.23274885 -0.32822046
000290 e6 f1 02 3f 69 03 2b bd 60 c2 e1 3e 51 69 ce 3e
       0.5115036 -0.0417513 0.4409361 0.40314725
0002a0 37 75 a2 be e9 75 ce 3c 03 b7 2e be 69 e6 50 bd
       -0.31730053 0.025202708 -0.17062001 -0.051000986
0002b0 86 5b c5 3e e9 47 8f 3e 72 86 80 be 9a c9 55 be
       0.3854639 0.2798455 -0.25102574 -0.20877686
0002c0 40 f3 bc be e4 72 d2 be 5d ac a4 3e e6 e5 9c be
       -0.36904335 -0.4110328 0.32162753 -0.3064415
0002d0 22 5f 56 bd 1f a4 11 bc a6 3c 2f 3d ba 34 8e bd
       -0.05233682 -0.008889227 0.04278245 -0.069436505
0002e0 a3 1c 92 3e 26 56 9a 3d 7a 1f c3 3e e3 a4 03 3e
       0.28537473 0.07535963 0.38109952 0.12855868
0002f0 7d 33 2a 3d 51 77 99 3d 03 25 bb 3e 84 38 d9 3d
       0.04155301 0.07493461 0.36551675 0.106064826
000300 fa cf c6 3e cc d8 f9 bc cb 26 15 3d 00 0e e5 3e
       0.3883055 -0.030498885 0.03641395 0.44737244
000310 9a c5 e1 be 73 5c 91 3d 89 61 f7 3e bf 39 65 be
       -0.4409607 0.070977114 0.483166 -0.2238531

encoder_mean.bias f4 [50]
000000 9a 87 9b bd 15 fa 99 3b 1d 08 44 3e c4 3f 5f 3e
       -0.07594223 0.0046990016 0.1914372 0.21801668
000010 fd e4 a1 3d 19 d8 5e 3e 3e 54 74 be e2 a1 69 3e
       0.07905004 0.21762122 -0.23860261 0.2281566
000020 a3 01 d9 bd 30 d0 b0 3e 47 66 d3 bd 33 7d f0 be
       -0.10596015 0.34533834 -0.10322242 -0.4697052
000030 ca e8 71 3c 07 0f 80 3e ee 74 3e bd 9a 90 06 3d
       0.014764974 0.25011465 -0.04649823 0.032852747
000040 ed e4 8d 3c 92 76 72 3e bf 67 7e 3b 5c b8 d6 be
       0.017321074 0.23678043 0.0038819162 -0.4193753
000050 d2 36 a5 be b4 79 4f 3d af 47 20 bd 98 1f f6 3e
       -0.32268387 0.050653175 -0.039130863 0.4807098
000060 ad 21 27 be df c2 d1 3e 27 91 e9 be be a4 01 bf
       -0.1632144 0.40968987 -0.45618555 -0.50642
000070 de 45 15 bc 64 2c b2 be 93 ca 28 be 76 ad 92 3c
       -0.009110896 -0.34799492 -0.16483526 0.017904978
000080 ae 3b da be 1d 44 b6 3e 36 2f 9c be 4b 58 b1 3e
       -0.42623657 0.3559884 -0.3050477 0.34637675
000090 3c 88 08 3e 39 12 fc bd 0b 8a ed be f2 35 d2 3d
       0.1333322 -0.12308163 -0.4639438 0.102641955
0000a0 e2 3d 9e be bf 4d e3 3e 89 98 ec be bc 5e da bd
       -0.30906588 0.44395253 -0.46210125 -0.106626004
0000b0 e8 bf 8f be 21 eb bc be 76 7b 6d be 7a b4 67 bc
       -0.280761 -0.3689814 -0.23191628 -0.01414215
0000c0 f9 71 8f 3d 98 cb e7 3d
       0.070041604 0.11318129

encoder_logv.weight f4 [50, 4]
000000 d2 d0 82 3e 78 21 51 be 3c d6 9e be 68 c1 d7 bd
       0.25549942 -0.20422924 -0.31022823 -0.10534936
000010 9a 3e f1 3e b0 35 7a bd 4e 84 d7 be 6c df c8 3e
       0.47118074 -0.061086357 -0.42093128 0.39232957
000020 20 28 f9 3d 58 b9 b1 3d 58 c4 af 3d 3a 9c b2 3e
       0.12165856 0.0867793 0.085823715 0.34884816
000030 d0 22 69 be b2 93 ba 3e 40 2b f6 3e 38 05 04 be
       -0.22767186 0.36440808 0.48079872 -0.12892616
000040 d0 91 a1 3e 66 3d 8d 3e 54 bd ef 3e 48 53 ee bd
       0.3155656 0.27585906 0.46824133 -0.116369784
000050 1a 49 98 be 0c 0e 3e be 4e 2b ae be 60 85 8c 3c
       -0.29743272 -0.18560046 -0.34017414 0.017153442
000060 fc d1 f6 3e e4 5a f8 3e e6 5e c1 3e 80 a6 4a 3d
       0.4820708 0.48506844 0.37767714 0.049475193
000070 00 d6 31 3c be 80 a9 3e 38 02 98 3e 00 3c 4b bd
       0.010854244 0.33106035 0.29689193 -0.049617767
000080 38 7e 01 be 58 73 4a 3e 40 20 8e bc 8c d9 b3 be
       -0.12645805 0.19770563 -0.017349362 -0.35126913
000090 a0 d2 70 be fe 9c cf 3e 66 32 d5 3e a8 81 47 be
       -0.23517847 0.40549463 0.41640013 -0.19483054
0000a0 b0 bf db bd 54 c2 7d be 84 27 27 be e8 5b e9 3e
       -0.10729921 -0.24781162 -0.16323668 0.4557793
0000b0 ee af e3 be 9c 51 74 3e f4 16 e6 be 88 45 74 be
       -0.4447016 0.23859257 -0.44939387 -0.23854649
0000c0 e8 85 d0 bd 20 e9 0d 3d a0 4b a6 bd dc 0a 6a be
       -0.101817906 0.034646153 -0.08119893 -0.22855705
0000d0 d8 5e 64 be 4a b5 9b be 7e b0 b2 be 56 7e 9f be
       -0.22301805 -0.3041175 -0.34900278 -0.31151074
0000e0 6a 7c f5 3e 58 3d 71 be f4 e2 d4 be 12 f3 af 3e
       0.47946483 -0.23558557 -0.41579401 0.34365135
0000f0 90 a2 46 3e ec 17 b0 3e 52 a4 fe be 8a ae f3 be
       0.1939795 0.3439325 -0.4973474 -0.475941
000100 f0 b1 b5 be 96 dc 86 be 00 52 90 ba 48 78 5d 3e
       -0.35487318 -0.2634017 -0.0011010766 0.21627915
000110 d4 e0 95 3e d6 2f dc be 0c 31 4c 3e 06 0c 94 be
       0.29273093 -0.43005246 0.19940585 -0.28915423
000120 70 60 eb 3d 50 c0 20 3e 58 df a3 3d f0 25 35 3e
       0.11493003 0.15698361 0.08001584 0.17690253
000130 60 85 cc bc 12 02 a9 3e 50 91 d5 3d 84 47 e0 3e
       -0.024965942 0.33009392 0.10428107 0.43804562
000140 a0 f8 dd 3d 2a 85 87 be 20 67 a4 3e 40 e7 dd 3c
       0.10838437 -0.26468784 0.32109928 0.027087808
000150 9a 68 f7 3e 60 7d 62 bd 46 4a fd 3e 6a 71 95 be
       0.48321992 -0.05529535 0.4947073 -0.2918809
000160 38 a9 80 3e 2c fa be be aa c0 af 3e 10 e1 b9 3d
       0.25129104 -0.3730024 0.3432668 0.090761304
000170 58 57 91 3e 2c 76 dc be 14 a8 fe be 70 b3 76 3e
       0.2838695 -0.43058908 -0.49737608 0.24091887
000180 b8 a4 52 be 20 c6 4a 3e c4 e1 97 be 00 47 1e be
       -0.20570648 0.19802141 -0.29664433 -0.15456772
000190 00 cd 12 3b 24 2a 9a 3e 4c 91 90 3e c0 f0 36 bd
       0.0022400022 0.30110276 0.28235853 -0.04466319
0001a0 d4 d1 10 be 00 12 0e bc 68 f1 83 3e 5a fa d8 be
       -0.14142543 -0.008671284 0.25770116 -0.42378503
0001b0 d0 72 1c be 78 c8 f6 be 68 cf 93 3d 70 3e 72 bd
       -0.15278172 -0.4819982 0.07217294 -0.059141576
0001c0 d0 05 91 3e c6 82 cc 3e 76 e3 da be 84 97 62 be
       0.28324747 0.39943522 -0.42751664 -0.22128111
0001d0 28 9e a4 bd 00 61 a3 bb 18 bf e9 bd 7c f5 a0 be
       -0.080379784 -0.0049859285 -0.11413401 -0.3143729
0001e0 14 d6 45 be 00 f8 52 bc 8e de cd 3e 1c 7c 02 be
       -0.19319946 -0.012876511 0.40208858 -0.12742656
0001f0 78 0f a9 3e 08 f0 ce be a0 2b b7 3c 70 c6 c7 be
       0.33019614 -0.40417504 0.02235967 -0.39018583
000200 ca 38 f0 be 10 f6 4a 3d 8c 70 6a be 88 78 bc 3e
       -0.46918327 0.04955107 -0.22894496 0.36810708
000210 4c 34 ca 3e 88 cd fe be f0 b9 0e bd 50 f0 ae bd
       0.39493024 -0.49766183 -0.034845293 -0.0854193
000220 ee e9 91 be 7a b9 b2 be c8 aa 58 be fc 0c 62 3e
       -0.28498787 -0.34907132 -0.21158898 0.22075266
000230 a0 78 f3 3d 46 13 9a 3e 20 49 f4 bc e6 f5 84 3e
       0.11888242 0.3009283 -0.029820025 0.25968856
000240 e0 04 c6 3d 98 4a df bd 80 74 ef bc 90 d4 e8 be
       0.096688986 -0.109028995 -0.029230356 -0.45474672
000250 80 21 3c bc 34 33 28 be f0 57 2b be c4 a4 4d be
       -0.011482596 -0.16425782 -0.16732764 -0.20082384
000260 a8 e1 df bd c2 ff bc be 80 5c f0 3c 80 76 a6 bc
       -0.109317124 -0.36913878 0.029340982 -0.020320177
000270 30 d9 06 be f4 39 de 3e 4c ce ab 3e 4c 99 10 3e
       -0.13168788 0.4340359 0.3355583 0.14120978
000280 c0 94 3c be 78 9b 82 3d 38 24 b0 be 94 60 b2 3e
       -0.18416119 0.063773096 -0.34402633 0.34839308
000290 8c 1c ef 3e 30 e3 98 bd c8 6d c5 3e 72 41 f0 3e
       0.46701467 -0.074652076 0.3856032 0.4692493
0002a0 40 1c f6 bc 74 1e 3e be 00 b8 ce 3c 30 39 a9 3d
       -0.030042768 -0.18566304 0.025234222 0.08262861
0002b0 dc f8 ec be 20 84 ff bc 5c 1f 39 be e4 d3 aa 3e
       -0.46283615 -0.031190932 -0.18078369 0.33364785
0002c0 40 28 6b bc 72 6e a8 3e 60 b5 e3 3e 58 75 20 be
       -0.014352858 0.32896763 0.44474316 -0.15669763
0002d0 88 6b dc 3d e0 30 2f bd 30 21 5f be d4 02 8e be
       0.107626975 -0.04277122 -0.21790004 -0.27736533
0002e0 00 90 3d 3c 18 8f 1b 3e 18 1a b4 bd e0 e5 ad 3d
       0.011569977 0.15191305 -0.087940395 0.08491111
0002f0 da fa 9f 3e 80 71 55 3e 6c 22 53 3e 00 e4 0f 3e
       0.31246072 0.20844078 0.206186 0.14051819
000300 cc ca c4 be 9c e1 9a be 14 d8 bd be 28 3a a8 3e
       -0.38435972 -0.3025025 -0.37078917 0.3285687
000310 0c 7a e1 be cc 1f bf be 82 97 a8 3e ca 52 97 3e
       -0.44038427 -0.37328947 0.3292809 0.2955535

encoder_logv.bias f4 [50]
000000 66 00 f2 be d0 eb 93 3e 70 a7 e9 bd e0 9d dc 3d
       -0.4726593 0.28890848 -0.11408889 0.107723
000010 06 5e a0 be 70 71 9b bd 30 97 e3 3d 76 32 c3 3e
       -0.31321734 -0.07589996 0.11112821 0.38124436
000020 ea 3c 9b 3e 1e 35 8b be 84 eb a7 be c0 41 f9 bc
       0.3031991 -0.27188963 -0.32796872 -0.03042686
000030 dc af 20 3e 4c 5d 8c 3e d2 1a ff be c0 5b 27 bd
       0.15692085 0.2741493 -0.4982515 -0.040858984
000040 a0 d8 90 3c 0c 1d 6f be ae ea c9 3e f8 e8 07 be
       0.01768142 -0.23350924 0.3943686 -0.13272464
000050 da 11 f4 be 12 da 98 be 80 54 83 3c de 81 be be
       -0.4766987 -0.29853874 0.016031504 -0.37208456
000060 a8 e4 e9 3d 9a 09 f9 3e 40 ad a7 3c 40 44 fc bd
       0.11420566 0.48640138 0.020468354 -0.12317705
000070 e6 2d f1 3e 34 fd bc 3e e2 1d aa 3e 00 5a 1b 3d
       0.4710533 0.3691193 0.33225924 0.037927628
000080 00 41 bb 3c f0 88 c6 be 40 79 50 3d dc ff f8 3e
       0.022858143 -0.3877635 0.050896883 0.48632705
000090 80 88 d8 3c 5c 73 e4 be 6c 82 8c 3e f0 bf e5 3e
       0.026432276 -0.44619262 0.27443254 0.44873
0000a0 aa 9d d6 3e e0 2f c1 3c 38 5f c0 3d e8 b6 a5 3d
       0.41917163 0.023582399 0.093931615 0.08091527
0000b0 24 d8 51 be b0 69 95 bd b2 d8 d0 3e 70 f1 50 3d
       -0.20492607 -0.07295549 0.40790325 0.051011503
0000c0 bc 46 f1 3e 4c 00 aa be
       0.4712428 -0.33203351

rnn_in.weight f4 [36, 50]
000000 0a f6 ef bc 1e 38 e2 3c ad ac 95 bd 34 c6 19 3e
       -0.029292125 0.02761465 -0.07308326 0.15017015
000010 d3 5a b5 3d c1 54 5d bd ab a4 e4 3d 2c dd 2b 3e
       0.08855214 -0.054035906 0.111642204 0.16783589
000020 96 ed a7 bd e2 52 ab 3c d0 21 21 3e 47 85 ff bd
       -0.08199613 0.020913545 0.15735555 -0.124765925
000030 ff f4 16 bd 2e f0 fe bd 03 91 9a 3d e8 06 90 3c
       -0.03685474 -0.124481544 0.0754719 0.017581418
000040 27 09 8e 3d 71 b5 a0 3d b2 6b 5d bd ec e9 1b be
       0.069353394 0.07847107 -0.054057784 -0.15225953
000050 37 4e dd 3c 82 a3 8b 3c 48 76 c1 3d 0a ea e3 3d
       0.027014835 0.01704574 0.094463885 0.11128624
000060 af 93 7d bd 4e 2e 15 bd e7 75 a0 3d f9 e9 36 3d
       -0.06190842 -0.036421113 0.07834988 0.044656727
000070 f4 df 99 3d 8d c5 07 3d d3 a5 9f 3d f7 09 fa bd
       0.07513419 0.033147383 0.077953 -0.12208932
000080 99 47 61 3d d6 cd 8d 3b 2c 89 2a be 97 26 af 3a
       0.05499992 0.004327516 -0.1665389 0.0013362941
000090 53 b0 e6 3c a9 4c 02 3e 90 25 eb bd 4d 9d 38 3e
       0.02816025 0.12724556 -0.11481774 0.18028755
0000a0 70 5a e7 bd 9f a8 04 3e e4 ae 84 3d 9a 25 32 bd
       -0.112965465 0.12954949 0.0647867 -0.04349289
0000b0 a2 84 bb bd 13 0b 59 bd af 85 46 bd 10 e7 58 3d
       -0.09156157 -0.052989077 -0.048467334 0.052954733
0000c0 71 7d db 3d 4c cf a6 3b d8 c1 84 bd 4d a5 9b 3d
       0.107172854 0.0050906297 -0.06482285 0.07599888
0000d0 ea 27 0c 3e ed 1b 4f bd e8 c9 8b 3d 03 d1 0f bc
       0.13687101 -0.05056374 0.0682562 -0.00877786
0000e0 37 9a 5a 3d 13 8b d9 bd 6f 1b e5 bd 0f 34 80 bb
       0.053369727 -0.106222294 -0.11186873 -0.003912456
0000f0 f9 cf f0 bd 5e 21 60 3d 6a a7 04 3e f0 03 d9 bc
       -0.11758418 0.05471932 0.12954488 -0.026491135
000100 f8 de 67 3b ae 51 00 3d 9c cb 80 bd a2 1e fb bb
       0.0035380702 0.031327896 -0.062888354 -0.007663564
000110 62 46 23 3d 00 aa 04 3e a2 f5 ee bd 42 6c 94 bb
       0.039862044 0.12955475 -0.116679445 -0.004529507
000120 36 f9 00 be ce eb 91 bd a5 6c 84 bc 29 29 6a bd
       -0.12595066 -0.07125054 -0.016165087 -0.05716816
000130 73 9a a7 3d 52 16 ac 3d d2 c9 87 bd ed 1b 90 bc
       0.08183756 0.08402695 -0.06630291 -0.017591441
000140 20 87 72 bd 78 cc 42 3b 00 fb 1e bc dd 57 00 3e
       -0.059210896 0.0029723924 -0.009703398 0.12533517
000150 53 ff 02 be 3c 4d 73 3d e2 25 f3 bd 0c 45 0d be
       -0.12792711 0.05939983 -0.1187246 -0.1379587
000160 c4 2a b3 3d 7b 1f 70 bd 8d a3 8a bd 57 04 d4 3c
       0.08748391 -0.058623772 -0.06769476 0.025880976
000170 3b a0 a6 bc be 1c cc bd 82 67 9c bd 2b 74 6c bd
       -0.020340076 -0.0996642 -0.0763693 -0.057727974
000180 a8 a3 96 bc 6b d2 ca bd 2c b1 1a be 3f fb bc 3d
       -0.018388584 -0.09903415 -0.15106648 0.09227609
000190 70 b3 e4 bd be 65 ed bb b1 93 05 3e ae 6f 2d bd
       -0.111670375 -0.0072447946 0.13044621 -0.042342834
0001a0 48 af d3 bd 6b ea 42 3d d6 73 ea 3d c6 e3 bb bb
       -0.103361666 0.04758684 0.11447875 -0.00573394
0001b0 b0 d9 61 3a 99 d7 9a 3d 5d 0b e1 3c 16 0d 90 3c
       0.0008615507 0.07560653 0.027471239 0.017584365
0001c0 7f 20 85 3d bc 8f 5c 3d 6d 23 e3 bd 62 85 3f bd
       0.06500339 0.053848013 -0.11090741 -0.046758063
0001d0 25 ff d8 3d 7f 46 3e 3c 1c 91 bd 3c 62 da 15 3e
       0.1059554 0.011613487 0.023140483 0.14634088
0001e0 ce c4 c7 3d 75 f1 87 3d 2e 12 16 3e bc 7d 05 be
       0.097543344 0.06637851 0.14655373 -0.13036245
0001f0 01 9f 5f 3c 10 04 3e 3d 2e ae 09 bd 6e 8f 99 bd
       0.013648749 0.046390593 -0.033613376 -0.0749806
000200 39 d0 15 3d c1 f5 00 be 23 a1 8d bd 0b 0d c8 3d
       0.03657553 -0.12593748 -0.069155 0.09768113
000210 f3 bc 6b bd 3c e2 4f bd a0 0d 5d 3d 6d 95 3c bd
       -0.057553243 -0.050752863 0.053968072 -0.04604094
000220 2a e7 32 3c 47 fb 19 be 6c 32 95 3d 65 40 ee bd
       0.010919372 -0.15037261 0.07285008 -0.11633376
000230 47 be 42 3c 05 4b 07 be 41 60 02 be c4 d6 fd 3d
       0.011886186 -0.13212211 -0.1273203 0.12394479
000240 bf b9 b2 bd d8 0d 1d bc 42 fa 93 3c 60 1c 10 3e
       -0.087268345 -0.00958582 0.018063668 0.14073324
000250 18 6d 5d 3d e4 e7 93 3d 34 36 b4 bd 40 67 a5 bd
       0.054059118 0.07221964 -0.08799401 -0.08076334
000260 58 c0 95 3d 82 82 99 3c dd 6b 87 3d ac b3 0d be
       0.07312077 0.018738989 0.0661237 -0.1383807
000270 64 59 aa bd a4 5f 8d bb f6 c4 0a be 81 28 8a 3d
       -0.08317831 -0.0043143798 -0.13551697 0.06746007
000280 b1 c9 b0 3d d2 ee d8 bc bd 98 75 bd 68 e2 2d 3e
       0.086322196 -0.026481066 -0.059960116 0.16980898
000290 5b 50 31 bd a3 30 10 be f2 3c 08 be 23 da 68 3d
       -0.043289524 -0.14081053 -0.13304499 0.056848656
0002a0 73 76 76 3d b4 a1 81 3d a8 8e a7 3d 0c 8f e4 3c
       0.060171556 0.063296705 0.081815064 0.027900241
0002b0 c3 0f 69 bc 97 04 04 3e 98 b0 00 bd 1a 2e 65 bd
       -0.014224949 0.12892376 -0.031418413 -0.05595217
0002c0 21 51 19 3e ec d6 a6 bc e4 72 2b 3d 7a 43 7e 3d
       0.14972354 -0.020366155 0.041857615 0.06207607
0002d0 17 f5 9b 3d 9c 8a 20 ba aa f6 ec bd 7c 06 08 3e
       0.076151066 -0.000612417 -0.11570485 0.13283724
0002e0 f0 cc 17 3e f7 5a a2 bd 8b 74 3e bd 9a d0 f8 3c
       0.14824271 -0.079275064 -0.046497863 0.030372906
0002f0 bc e5 bf 3d 8d 50 60 bd f8 5e ec bc 74 f1 9b 3d
       0.0936999 -0.05476432 -0.028853878 0.07614413
000300 0b 91 28 bd 96 c0 d9 3d c9 2d 09 3d 8c 31 cf 3d
       -0.04115395 0.10632436 0.03349093 0.10116872
000310 a5 6e d8 ba a3 a4 0c bc 3f 5f 8d 3d 99 94 c2 bc
       -0.0016512467 -0.008584174 0.069029324 -0.023752498
000320 8b bc af 3d 62 ca 3d 3d 34 b4 ae bd d3 01 ca 3d
       0.085808836 0.046335585 -0.08530465 0.09863629
000330 4c 49 c1 bd 5c c3 92 3d fc cd d5 bc bf 71 42 3d
       -0.094378084 0.07166168 -0.026099198 0.047471758
000340 3e 76 cb bc 0e 95 dc 3c 84 55 3b bd 76 fb 64 3d
       -0.024836656 0.026926544 -0.04573585 0.055903874
000350 81 8c 8f 3d c7 38 03 be 37 f1 fd 3d 2c 0a fc bd
       0.07009221 -0.12814628 0.12399524 -0.12306628
000360 f9 3a 8c bd e6 94 6d 3d 76 be 03 3e 28 36 03 3d
       -0.06847186 0.05800333 0.12865624 0.03203407
000370 11 4b a6 bd 6a 53 cb 3c cc 8c a3 bd c7 f8 ca 3d
       -0.081197865 0.024820048 -0.07985839 0.09910732
000380 77 01 8b 3c 66 49 38 3c ef a7 d4 bd ea 63 af 3d
       0.016968472 0.011247968 -0.10383593 0.08563979
000390 b8 cf 10 3e e4 85 cc bd 6e e1 78 3d 60 88 76 bd
       0.14141738 -0.09986475 0.06076186 -0.06018865
0003a0 9d a1 4f bc 1a 38 06 3e bf a1 08 be a9 1d d8 bc
       -0.012672809 0.13107339 -0.13342951 -0.02638133
0003b0 76 c3 95 3d 32 b9 a5 3d 44 01 28 bd 59 a3 86 bd
       0.07312672 0.08091964 -0.041016832 -0.06574125
0003c0 07 90 a7 3c 0d a4 f5 bd 5f 25 24 3c 24 14 e2 bd
       0.02045442 -0.11994181 0.010018676 -0.11038998
0003d0 e5 e9 ba bc c5 d9 fc 3d c0 f4 ea bd 5f e9 89 bd
       -0.022816608 0.12346224 -0.114724636 -0.06733965
0003e0 1a 24 c9 bd 13 20 8f 3d d5 c7 0d 3e 86 b9 99 bd
       -0.09821339 0.069885395 0.13845761 -0.07506089
0003f0 76 b8 d7 3d 82 09 d0 3d 69 33 11 be cb 76 86 3d
       0.1053323 0.101580635 -0.14179768 0.06565627

rnn_in.bias f4 [36]
000000 f7 ef ff bd 5c 9a dc 3d 92 ed 9f bd 4d 53 e9 bc
       -0.124969415 0.10771629 -0.07808985 -0.028482104
000010 9e 16 e1 39 35 95 01 be f5 f6 9a bd 3a 70 6a 3c
       0.00042932195 -0.12654574 -0.075666346 0.014308983
000020 40 d9 2a bd da 5a 9e 3d 87 8d 3e 3d 8f ab 9a 3d
       -0.041711092 0.07732172 0.04652169 0.075522535
000030 8b 52 9e 3d cf 4d cf 3c 8a 85 e9 bd 09 ae 6f 3d
       0.077305876 0.025305657 -0.11402424 0.058515582
000040 94 8d 2a bd ff cc 27 3d 03 34 66 3d b3 52 3a 3d
       -0.041638926 0.040966984 0.056201946 0.045489024
000050 52 5c e3 3d 16 7f 02 3e 54 89 c4 bd d9 58 62 bd
       0.11101593 0.12743792 -0.09596506 -0.055260513
000060 9d ea 68 3d 8d 3c 16 bc 2a 20 36 3d d3 74 09 be
       0.05686437 -0.00916971 0.044464268 -0.13423471
000070 e6 e4 80 bd f7 31 d3 ba f2 6e d0 3d b2 cf d3 bd
       -0.06293659 -0.0016112913 0.10177411 -0.10342349
000080 96 ed e9 3c dc 2c bb 3c 39 02 81 bd 99 96 a0 3d
       0.028555673 0.022848539 -0.06299252 0.07841224
